…
xt_dim=256, weight_decay=0, weight_decay_gat=1e-05)
Using: cuda:0
lr:0.001
dropout_gat:0.3
dropout:0.3
cuda:0
epochs_gat:3000
epochs:2000
weight_decay_gat:1e-05
weight_decay:0
seed:10010
model:RMoE
num_layers:3
dim:256
r_dim:256
k_w:10
k_h:20
n_heads:2
dataset:DB15K
pre_trained:0
encoder:0
image_features:1
text_features:1
patience:5
eval_freq:100
lr_reduce_freq:500
gamma:1.0
bias:1
neg_num:2
neg_num_gat:2
alpha:0.2
alpha_gat:0.2
out_channels:32
kernel_size:3
batch_size:1024
save:1
n_exp:3
mu:0.0001
img_dim:256
txt_dim:256
temp:0.07
device:cuda:0
Training data 79222
RelMoE(
  (entity_embeddings): Embedding(12842, 256)
  (relation_embeddings): Embedding(558, 256)
  (rel_gate): Embedding(558, 1)
  (img_entity_embeddings): Embedding(12842, 256)
  (img_relation_embeddings): Embedding(558, 256)
  (txt_entity_embeddings): Embedding(12842, 256)
  (txt_relation_embeddings): Embedding(558, 256)
  (TuckER_S): TuckERLayer(
    (bn0): BatchNorm1d(256, eps=1e-05, momentum=0.1, affine=True, track_running_stats=True)
    (bn1): BatchNorm1d(256, eps=1e-05, momentum=0.1, affine=True, track_running_stats=True)
    (input_drop): Dropout(p=0.3, inplace=False)
    (hidden_drop): Dropout(p=0.4, inplace=False)
    (out_drop): Dropout(p=0.5, inplace=False)
  )
  (TuckER_I): TuckERLayer(
    (bn0): BatchNorm1d(256, eps=1e-05, momentum=0.1, affine=True, track_running_stats=True)
    (bn1): BatchNorm1d(256, eps=1e-05, momentum=0.1, affine=True, track_running_stats=True)
    (input_drop): Dropout(p=0.3, inplace=False)
    (hidden_drop): Dropout(p=0.4, inplace=False)
    (out_drop): Dropout(p=0.5, inplace=False)
  )
  (TuckER_D): TuckERLayer(
    (bn0): BatchNorm1d(256, eps=1e-05, momentum=0.1, affine=True, track_running_stats=True)
    (bn1): BatchNorm1d(256, eps=1e-05, momentum=0.1, affine=True, track_running_stats=True)
    (input_drop): Dropout(p=0.3, inplace=False)
    (hidden_drop): Dropout(p=0.4, inplace=False)
    (out_drop): Dropout(p=0.5, inplace=False)
  )
  (TuckER_MM): TuckERLayer(
    (bn0): BatchNorm1d(256, eps=1e-05, momentum=0.1, affine=True, track_running_stats=True)
    (bn1): BatchNorm1d(256, eps=1e-05, momentum=0.1, affine=True, track_running_stats=True)
    (input_drop): Dropout(p=0.3, inplace=False)
    (hidden_drop): Dropout(p=0.4, inplace=False)
    (out_drop): Dropout(p=0.5, inplace=False)
  )
  (visual_moe): MoEAdaptorLayer(
    (experts): ModuleList(
      (0-2): 3 x PWLayer(
        (dropout): Dropout(p=0.0, inplace=False)
        (lin): Linear(in_features=256, out_features=256, bias=False)
      )
    )
  )
  (text_moe): MoEAdaptorLayer(
    (experts): ModuleList(
      (0-2): 3 x PWLayer(
        (dropout): Dropout(p=0.0, inplace=False)
        (lin): Linear(in_features=256, out_features=256, bias=False)
      )
    )
  )
  (structure_moe): MoEAdaptorLayer(
    (experts): ModuleList(
      (0-2): 3 x PWLayer(
        (dropout): Dropout(p=0.0, inplace=False)
        (lin): Linear(in_features=256, out_features=256, bias=False)
      )
    )
  )
  (mm_moe): MoEAdaptorLayer(
    (experts): ModuleList(
      (0-2): 3 x PWLayer(
        (dropout): Dropout(p=0.0, inplace=False)
        (lin): Linear(in_features=256, out_features=256, bias=False)
      )
    )
  )
  (conv): Conv2d(256, 256, kernel_size=(1, 1), stride=(1, 1), bias=False)
  (bn): BatchNorm2d(256, eps=1e-05, momentum=0.1, affine=True, track_running_stats=True)
  (fuse_e): ModalFusionLayer(
    (modal1_layers): ModuleList(
      (0-1): 2 x Sequential(
        (0): Dropout(p=0.2, inplace=False)
        (1): Linear(in_features=256, out_features=256, bias=True)
        (2): ReLU()
      )
    )
    (modal2_layers): ModuleList(
      (0-1): 2 x Sequential(
        (0): Dropout(p=0.2, inplace=False)
        (1): Linear(in_features=256, out_features=256, bias=True)
        (2): ReLU()
      )
    )
    (modal3_layers): ModuleList(
      (0-1): 2 x Sequential(
        (0): Dropout(p=0.2, inplace=False)
        (1): Linear(in_features=256, out_features=256, bias=True)
        (2): ReLU()
      )
    )
    (ent_attn): Linear(in_features=256, out_features=1, bias=False)
  )
  (fuse_r): ModalFusionLayer(
    (modal1_layers): ModuleList(
      (0-1): 2 x Sequential(
        (0): Dropout(p=0.2, inplace=False)
        (1): Linear(in_features=256, out_features=256, bias=True)
        (2): ReLU()
      )
    )
    (modal2_layers): ModuleList(
      (0-1): 2 x Sequential(
        (0): Dropout(p=0.2, inplace=False)
        (1): Linear(in_features=256, out_features=256, bias=True)
        (2): ReLU()
      )
    )
    (modal3_layers): ModuleList(
      (0-1): 2 x Sequential(
        (0): Dropout(p=0.2, inplace=False)
        (1): Linear(in_features=256, out_features=256, bias=True)
        (2): ReLU()
      )
    )
    (ent_attn): Linear(in_features=256, out_features=1, bias=False)
  )
  (bceloss): BCELoss()
  (cliploss): ClipLoss()
)
Total number of parameters: 79069273.0
  0%|          | 0/2000 [00:00<?, ?it/s]  0%|          | 0/2000 [00:07<?, ?it/s, loss=main: 246.79 mi: 0.0]  0%|          | 1/2000 [00:07<4:04:38,  7.34s/it, loss=main: 246.79 mi: 0.0]  0%|          | 1/2000 [00:14<4:04:38,  7.34s/it, loss=main: 142.79 mi: 0
…
